# create by pogg
# parameters
nc: 1  # number of classes
depth_multiple: 1.0  # model depth multiple
width_multiple: 1.0  # layer channel multiple
anchors:
  - [ 10,13, 16,30, 33,23 ]  # P3/8
  - [ 30,61, 62,45, 59,119 ]  # P4/16
  - [ 116,90, 156,198, 373,326 ]  # P5/32

# custom backbone
backbone:
  # [from, number, module, args]
  [ [ -1, 1, conv_bn_relu_maxpool, [ 24 ] ],    # 0/4
    [ -1, 1, Shuffle_Block, [ 48, 2 ] ],        # 1/8
    [ -1, 3, Shuffle_Block, [ 48, 1 ] ],        # 2
    [ -1, 1, Shuffle_Block, [ 96, 2 ] ],        # 3/16   # p2
    [ -1, 7, Shuffle_Block, [ 96, 1 ] ],        # 4
    [ -1, 1, Shuffle_Block, [ 192, 2 ] ],       # 5/32
    [ -1, 3, Shuffle_Block, [ 192, 1 ] ],       # 6
  ]

# v5lite-e head
head:
  [ [ -1, 1, nn.Upsample, [ None, 2, 'nearest' ] ],   # 7 / P3
    [ 2, 1, nn.AvgPool2d, [ 3, 2, 1 ] ],              # P1
    [ [ -1, 4, 7 ], 1, Concat, [ 1 ] ],  # cat backbone P4
    [ -1, 1, SPP_FastestDet, [ 336, 96 ]],
    [ -1, 1, Detect_FastestDet, [ 96, nc, anchors ] ],  # Detect(P3, P4, P5)
  ]
